nohup: ignoring input
Device:  cuda:0
batch_size= 16
load the data
current dir  /home/infres/sbenmabr-22/Point_Transformer
The size of train data is 9843
Load processed data from ./data/modelnet40_normal_resampled/modelnet40_train_1024pts_fps.dat...
The size of test data is 2468
Load processed data from ./data/modelnet40_normal_resampled/modelnet40_test_1024pts_fps.dat...
Creating Model

PointTransformerModel(
  (MLP1): Sequential(
    (0): Linear(in_features=6, out_features=32, bias=True)
    (1): ReLU()
    (2): Linear(in_features=32, out_features=32, bias=True)
  )
  (transformer_initial): PointTransformerLayer(
    (linear1): Linear(in_features=32, out_features=64, bias=True)
    (linear2): Linear(in_features=64, out_features=32, bias=True)
    (keys): Linear(in_features=64, out_features=64, bias=False)
    (queries): Linear(in_features=64, out_features=64, bias=False)
    (values): Linear(in_features=64, out_features=64, bias=False)
    (mapping): Sequential(
      (0): Linear(in_features=64, out_features=64, bias=True)
      (1): ReLU()
      (2): Linear(in_features=64, out_features=64, bias=True)
    )
    (positional_encoding): Sequential(
      (0): Linear(in_features=3, out_features=64, bias=True)
      (1): ReLU()
      (2): Linear(in_features=64, out_features=64, bias=True)
    )
  )
  (down_blocks): ModuleList(
    (0): TransitionDownLayer(
      (mlp_convs): Sequential(
        (0): Conv1d(32, 64, kernel_size=(1,), stride=(1,))
        (1): BatchNorm1d(64, eps=1e-05, momentum=0.1, affine=True, track_running_stats=True)
        (2): ReLU()
      )
    )
    (1): TransitionDownLayer(
      (mlp_convs): Sequential(
        (0): Conv1d(64, 128, kernel_size=(1,), stride=(1,))
        (1): BatchNorm1d(128, eps=1e-05, momentum=0.1, affine=True, track_running_stats=True)
        (2): ReLU()
      )
    )
  )
  (transformer_blocks): ModuleList(
    (0): PointTransformerLayer(
      (linear1): Linear(in_features=64, out_features=64, bias=True)
      (linear2): Linear(in_features=64, out_features=64, bias=True)
      (keys): Linear(in_features=64, out_features=64, bias=False)
      (queries): Linear(in_features=64, out_features=64, bias=False)
      (values): Linear(in_features=64, out_features=64, bias=False)
      (mapping): Sequential(
        (0): Linear(in_features=64, out_features=64, bias=True)
        (1): ReLU()
        (2): Linear(in_features=64, out_features=64, bias=True)
      )
      (positional_encoding): Sequential(
        (0): Linear(in_features=3, out_features=64, bias=True)
        (1): ReLU()
        (2): Linear(in_features=64, out_features=64, bias=True)
      )
    )
    (1): PointTransformerLayer(
      (linear1): Linear(in_features=128, out_features=64, bias=True)
      (linear2): Linear(in_features=64, out_features=128, bias=True)
      (keys): Linear(in_features=64, out_features=64, bias=False)
      (queries): Linear(in_features=64, out_features=64, bias=False)
      (values): Linear(in_features=64, out_features=64, bias=False)
      (mapping): Sequential(
        (0): Linear(in_features=64, out_features=64, bias=True)
        (1): ReLU()
        (2): Linear(in_features=64, out_features=64, bias=True)
      )
      (positional_encoding): Sequential(
        (0): Linear(in_features=3, out_features=64, bias=True)
        (1): ReLU()
        (2): Linear(in_features=64, out_features=64, bias=True)
      )
    )
  )
  (MLP2): Sequential(
    (0): Linear(in_features=128, out_features=256, bias=True)
    (1): ReLU()
    (2): Linear(in_features=256, out_features=64, bias=True)
    (3): ReLU()
    (4): Linear(in_features=64, out_features=40, bias=True)
  )
)
optimizer = torch.optim.SGD(model.parameters(), lr=0.005, momentum=0.9, weight_decay=1e-4)
    scheduler = torch.optim.lr_scheduler.ReduceLROnPlateau(optimizer, mode='min', factor=0.9, patience=3, verbose=True, min_lr=1e-5)
Model training
  0%|          | 0/250 [00:00<?, ?it/s]  0%|          | 1/250 [01:39<6:52:16, 99.34s/it]  1%|          | 2/2
…
