…
Classes:  {0: 'airplane', 1: 'bathtub', 2: 'bed', 3: 'bench', 4: 'bookshelf', 5: 'bottle', 6: 'bowl', 7: 'car', 8: 'chair', 9: 'cone', 10: 'cup', 11: 'curtain', 12: 'desk', 13: 'door', 14: 'dresser', 15: 'flower_pot', 16: 'glass_box', 17: 'guitar', 18: 'keyboard', 19: 'lamp', 20: 'laptop', 21: 'mantel', 22: 'monitor', 23: 'night_stand', 24: 'person', 25: 'piano', 26: 'plant', 27: 'radio', 28: 'range_hood', 29: 'sink', 30: 'sofa', 31: 'stairs', 32: 'stool', 33: 'table', 34: 'tent', 35: 'toilet', 36: 'tv_stand', 37: 'vase', 38: 'wardrobe', 39: 'xbox'}
Train dataset size:  9843
Test dataset size:  2468
Number of classes:  40
Sample pointcloud shape:  torch.Size([1024, 3])
Creating Model

PointTransformerModel(
  (MLP1): Sequential(
    (0): Linear(in_features=3, out_features=32, bias=True)
    (1): ReLU()
    (2): Linear(in_features=32, out_features=32, bias=True)
  )
  (transformer_initial): PointTransformerLayer(
    (linear1): Linear(in_features=32, out_features=64, bias=True)
    (mapping): Sequential(
      (0): Linear(in_features=64, out_features=64, bias=True)
      (1): ReLU()
      (2): Linear(in_features=64, out_features=64, bias=True)
    )
    (positional_encoding): Sequential(
      (0): Linear(in_features=3, out_features=64, bias=True)
      (1): ReLU()
      (2): Linear(in_features=64, out_features=64, bias=True)
    )
    (keys): Linear(in_features=64, out_features=64, bias=False)
    (queries): Linear(in_features=64, out_features=64, bias=False)
    (values): Linear(in_features=64, out_features=64, bias=False)
    (linear2): Linear(in_features=64, out_features=32, bias=True)
  )
  (down_blocks): ModuleList(
    (0): TransitionDownLayer(
      (mlp_convs): ModuleList(
        (0): Conv2d(32, 64, kernel_size=(1, 1), stride=(1, 1))
        (1): Conv2d(64, 64, kernel_size=(1, 1), stride=(1, 1))
      )
      (mlp_bns): ModuleList(
        (0): BatchNorm2d(64, eps=1e-05, momentum=0.1, affine=True, track_running_stats=True)
        (1): BatchNorm2d(64, eps=1e-05, momentum=0.1, affine=True, track_running_stats=True)
      )
    )
    (1): TransitionDownLayer(
      (mlp_convs): ModuleList(
        (0): Conv2d(64, 128, kernel_size=(1, 1), stride=(1, 1))
        (1): Conv2d(128, 128, kernel_size=(1, 1), stride=(1, 1))
      )
      (mlp_bns): ModuleList(
        (0): BatchNorm2d(128, eps=1e-05, momentum=0.1, affine=True, track_running_stats=True)
        (1): BatchNorm2d(128, eps=1e-05, momentum=0.1, affine=True, track_running_stats=True)
      )
    )
    (2): TransitionDownLayer(
      (mlp_convs): ModuleList(
        (0): Conv2d(128, 256, kernel_size=(1, 1), stride=(1, 1))
        (1): Conv2d(256, 256, kernel_size=(1, 1), stride=(1, 1))
      )
      (mlp_bns): ModuleList(
        (0): BatchNorm2d(256, eps=1e-05, momentum=0.1, affine=True, track_running_stats=True)
        (1): BatchNorm2d(256, eps=1e-05, momentum=0.1, affine=True, track_running_stats=True)
      )
    )
    (3): TransitionDownLayer(
      (mlp_convs): ModuleList(
        (0): Conv2d(256, 512, kernel_size=(1, 1), stride=(1, 1))
        (1): Conv2d(512, 512, kernel_size=(1, 1), stride=(1, 1))
      )
      (mlp_bns): ModuleList(
        (0): BatchNorm2d(512, eps=1e-05, momentum=0.1, affine=True, track_running_stats=True)
        (1): BatchNorm2d(512, eps=1e-05, momentum=0.1, affine=True, track_running_stats=True)
      )
    )
  )
  (transformer_blocks): ModuleList(
    (0): PointTransformerLayer(
      (linear1): Linear(in_features=64, out_features=64, bias=True)
      (mapping): Sequential(
        (0): Linear(in_features=64, out_features=64, bias=True)
        (1): ReLU()
        (2): Linear(in_features=64, out_features=64, bias=True)
      )
      (positional_encoding): Sequential(
        (0): Linear(in_features=3, out_features=64, bias=True)
        (1): ReLU()
        (2): Linear(in_features=64, out_features=64, bias=True)
      )
      (keys): Linear(in_features=64, out_features=64, bias=False)
      (queries): Linear(in_features=64, out_features=64, bias=False)
      (values): Linear(in_features=64, out_features=64, bias=False)
      (linear2): Linear(in_features=64, out_features=64, bias=True)
    )
    (1): PointTransformerLayer(
      (linear1): Linear(in_features=128, out_features=64, bias=True)
      (mapping): Sequential(
        (0): Linear(in_features=64, out_features=64, bias=True)
        (1): ReLU()
        (2): Linear(in_features=64, out_features=64, bias=True)
      )
      (positional_encoding): Sequential(
        (0): Linear(in_features=3, out_features=64, bias=True)
        (1): ReLU()
        (2): Linear(in_features=64, out_features=64, bias=True)
      )
      (keys): Linear(in_features=64, out_features=64, bias=False)
      (queries): Linear(in_features=64, out_features=64, bias=False)
      (values): Linear(in_features=64, out_features=64, bias=False)
      (linear2): Linear(in_features=64, out_features=128, bias=True)
    )
    (2): PointTransformerLayer(
      (linear1): Linear(in_features=256, out_features=64, bias=True)
      (mapping): Sequential(
        (0): Linear(in_features=64, out_features=64, bias=True)
        (1): ReLU()
        (2): Linear(in_features=64, out_features=64, bias=True)
      )
      (positional_encoding): Sequential(
        (0): Linear(in_features=3, out_features=64, bias=True)
        (1): ReLU()
        (2): Linear(in_features=64, out_features=64, bias=True)
      )
      (keys): Linear(in_features=64, out_features=64, bias=False)
      (queries): Linear(in_features=64, out_features=64, bias=False)
      (values): Linear(in_features=64, out_features=64, bias=False)
      (linear2): Linear(in_features=64, out_features=256, bias=True)
    )
    (3): PointTransformerLayer(
      (linear1): Linear(in_features=512, out_features=64, bias=True)
      (mapping): Sequential(
        (0): Linear(in_features=64, out_features=64, bias=True)
        (1): ReLU()
        (2): Linear(in_features=64, out_features=64, bias=True)
      )
      (positional_encoding): Sequential(
        (0): Linear(in_features=3, out_features=64, bias=True)
        (1): ReLU()
        (2): Linear(in_features=64, out_features=64, bias=True)
      )
      (keys): Linear(in_features=64, out_features=64, bias=False)
      (queries): Linear(in_features=64, out_features=64, bias=False)
      (values): Linear(in_features=64, out_features=64, bias=False)
      (linear2): Linear(in_features=64, out_features=512, bias=True)
    )
  )
  (MLP2): Sequential(
    (0): Linear(in_features=512, out_features=256, bias=True)
    (1): ReLU()
    (2): Linear(in_features=256, out_features=64, bias=True)
    (3): ReLU()
    (4): Linear(in_features=64, out_features=40, bias=True)
  )
)
Model training
  0%|          | 0/250 [00:00<?, ?it/s]  0%|          | 1/250 [01:00<4:09:56, 60.23s/it]  1%|          | 2/250 [01:51<3:48:22, 55.25s/it]  1%|          | 3/250 [02:44<3:41:36, 53.83s/it]  2%|▏         | 4/250 [03:36<3:38:15, 53.23s/it]  2%|▏         | 5/250 [04:28<3:35:45, 52.84s/it]  2%|▏         | 6/250 [05:20<3:33:23, 52.47
…
